streamlit tensorflow chatbot/data.pth (torch, 16426 bytes, 6 tensors)

l1.weight f4 [8, 276]
0	0x3f8bacef	1.091215
1	0x3f92cb5a	1.1468308
2	0x3f7aac2b	0.9791896
3	0xbd742ac2	-0.05961109
4	0x3f8f36dc	1.1188617
5	0xbd0fa97d	-0.035073746
6	0xbad9c338	-0.0016613966
7	0x3d8271ef	0.06369387
8	0x3d10547c	0.03523682
9	0xbf28e2cd	-0.6597107
10	0x3f957bcf	1.1678408
11	0x3fac80c1	1.3476793
12	0xbcf737cb	-0.030177971
13	0xbc529410	-0.012852684
14	0xbd4320c8	-0.047638685
15	0x3c54f658	0.012998186
16	0xbe83cb36	-0.25740975
17	0xbd14dffb	-0.036346417
18	0x3fe5ad69	1.7943546
19	0x38e3f400	0.00010869652
20	0x3cb998ec	0.022655927
21	0xbc1fdf1c	-0.009757783
22	0xbf9feb96	-1.249377
23	0x3c7b39e0	0.015333623
24	0xbd3683d4	-0.044559315
25	0xbf55ca98	-0.8351226
26	0x3d4471ac	0.04795997
27	0xbea929d6	-0.3303973
28	0xbe46dc96	-0.19420084
29	0xbf565c29	-0.83734375
30	0xbd6fdc27	-0.058559563
31	0xbd2e4268	-0.0425438
32	0x3d894b5b	0.06703826
33	0xbd3619c8	-0.04445818
34	0xbf066570	-0.5249853
35	0x3d8e7f87	0.06957918
36	0xbbb81c80	-0.005618632
37	0xbf52779e	-0.8221377
38	0xbf7b547c	-0.9817579
39	0xbd1730d2	-0.036911793
40	0xbeaaa3d4	-0.33328116
41	0xbe9cebf2	-0.30648762
42	0x3e267dc4	0.16258913
43	0x3b836920	0.0040103346
44	0x3cb6b647	0.022303713
45	0x3ecaaf49	0.39586857
46	0x3f9efead	1.2421471
47	0x3e00038e	0.12501356
48	0x3fb18523	1.3868755
49	0x3cc201e0	0.023682535
50	0xbb7f658b	-0.0038970436
51	0x3f9420f8	1.1572561
52	0x3f5c0e03	0.8595888
53	0x3fa6fc6f	1.3045787
54	0x3c97bb64	0.018521972
55	0x3f959871	1.1687146
56	0x3d7bba6c	0.061457083
57	0x3f896b4d	1.0735871
58	0x3fabd5c3	1.342461
59	0xbcd0bd12	-0.02548078
60	0x3d2e139a	0.042499162
61	0x3f95b637	1.1696233
62	0x3f456838	0.7711215
63	0x3d996251	0.074894555
64	0x3fad0601	1.3517457
65	0x3c059790	0.008153811
66	0xbcf28fa0	-0.029609501
67	0xbeb09d3d	-0.34494963
68	0x3ac43d80	0.0014971942
69	0x3d2bc704	0.041937843
70	0x3e5426c8	0.20717919
71	0xbe236cfb	-0.15959541
72	0x3f6264ab	0.8843486
73	0x3d10ba96	0.035334192
74	0xbc1954bc	-0.009358581
75	0x3e5ac604	0.213646
76	0x3f138bd4	0.57635236
77	0x3d21a542	0.039464243
78	0xbcc7e6ef	-0.02440211
79	0x3d7aee5c	0.061262473
80	0xbea63d4f	-0.3246865
81	0x3cef6725	0.029223988
82	0x3afb88a7	0.0019190506
83	0x3b8b7f80	0.0042571425
84	0xbe977b53	-0.29586276
85	0x3f169698	0.5882354
86	0xbe1cd840	-0.15316868
87	0xbe99d54d	-0.30045548
88	0xbeaeeffb	-0.34167466
89	0x3f21c094	0.63184476
90	0xbf872b56	-1.05601
91	0xbf89b55a	-1.0758469
92	0xbe43ad7c	-0.19109148
93	0x3ef60658	0.48051715
94	0x3dfbde78	0.12298292
95	0x3f0bb13e	0.54567325
96	0xbf8cafd5	-1.099116
97	0xbe94e691	-0.29082158
98	0xbe8cad94	-0.2747618
99	0xbe8b0bed	-0.27157536
100	0xbe9514e7	-0.2911751
101	0xbeb82061	-0.35962203
102	0xbd908875	-0.07057277
103	0x3abdbaa0	0.0014475174
104	0x3f2fbaed	0.686446
105	0xbd3bc1de	-0.045839183
106	0x3c74ed68	0.01494918
107	0x3bc21f45	0.005924138
108	0x3d91815f	0.07104754
109	0x3fb13cc6	1.3846672
110	0xbc84fdfe	-0.016234394
111	0xbc7178cb	-0.014738272
112	0x3f9bd815	1.2175318
113	0xbe89c820	-0.26910496
114	0xbe82b61c	-0.25529563
115	0xbe924ff9	-0.2857664
116	0xbe8f678b	-0.28008685
117	0xbd801f94	-0.06256023
118	0xbdbc5534	-0.09195939
119	0xb9139000	-0.00014072657
120	0xbe3b4bd6	-0.18290648
121	0xb9f45b5c	-0.00046607375
122	0xbe94a366	-0.29030913
123	0xbdce526f	-0.10074317
124	0xbc95830d	-0.018250966
125	0xbe4ec82e	-0.2019355
126	0xbdf32d72	-0.118739024
127	0x3d1077ec	0.035270616
128	0x3d8f8657	0.07008045
129	0x3a6e046e	0.00090796396
130	0xbfb57121	-1.4175149
131	0xbfaec786	-1.365464
132	0x3f39c91b	0.7257249
133	0x3f1b8822	0.607546
134	0xbe6eb737	-0.23312078
135	0x3b733e42	0.0037115966
136	0x3d824dad	0.06362472
137	0x3f9d3cbe	1.2284162
138	0xbe8969e8	-0.26838613
139	0x3d31cf68	0.04341069
140	0x3bbe3325	0.0058044367
141	0x3fc8c70d	1.5685745
142	0x3a0f7500	0.00054724514
143	0xbcf56c3c	-0.029958837
144	0xbcdaed88	-0.026724592
145	0xbed09bc1	-0.4074383
146	0x3ef17d14	0.4716574
147	0x3eec92fe	0.46205896
148	0x3db360be	0.087586865
149	0xbcfb5fd4	-0.030685343
150	0x3e47b7b5	0.19503672
151	0xbeb33f4b	-0.35009226
152	0xbe9e9b88	-0.30978036
153	0x3f32a0aa	0.69776404
154	0xbe68df98	-0.22741544
155	0xbebb2b25	-0.36556354
156	0xbd489f45	-0.048980016
157	0xbe90e697	-0.28300926
158	0xbe86b0d5	-0.26306787
159	0xbee3458c	-0.44388998
160	0xbe5bed58	-0.21477258
161	0xbea66ca7	-0.3250477
162	0x3f288e43	0.65842074
163	0x3f132e9f	0.57493013
164	0x3ea3a165	0.31959072
165	0x3f82e32b	1.0225576
166	0x3efa09d4	0.48835623
167	0x3f910726	1.1330307
168	0x3f0fbfd4	0.5615208
169	0x3f8aa47a	1.0831444
170	0x3ef4ead7	0.4783542
171	0x3f84565f	1.0338858
172	0x3ee6137b	0.44936737
173	0xbd366bec	-0.044536516
174	0x3d7e56b6	0.062094413
175	0x3fad2251	1.3526098
176	0xbccf3c9d	-0.025297457
177	0xbcbdfe25	-0.023192475
178	0x3f1a9ded	0.60397226
179	0xbeac10f3	-0.3360668
180	0x3d56da98	0.05245456
181	0xbc3a3be7	-0.011366821
182	0x3fa60dde	1.2972982
183	0xbc8e99c9	-0.017407315
184	0x3c9d3c6d	0.019193852
185	0x3f5ace8c	0.85471416
186	0x3f210ecb	0.629132
187	0xbb51d7e0	-0.003201954
188	0x3f63b5aa	0.8894907
189	0x3f69b22e	0.91287506
190	0x3f6d9d40	0.9281807
191	0x3d84dcf1	0.06487454
192	0x3f5b541b	0.8567521
193	0x3fd78ac3	1.6839222
194	0x3fb71402	1.4302981
195	0x3fc04400	1.5020752
196	0xbe4c3429	-0.19941773
197	0x3e15ec4b	0.1464092
198	0xbe42776b	-0.18990867
199	0x3dfa4217	0.12219637
200	0xbe5cf0d1	-0.21576239
201	0xbe837277	-0.25673267
202	0x3e8f73ab	0.28017935
203	0x3d2f1530	0.042744815
204	0xbe9c26da	-0.3049839
205	0xbeb10038	-0.3457048
206	0x3cfbb167	0.03072424
207	0x3cb63274	0.022240855
208	0xbe9b09c2	-0.30280882
209	0x3e519d92	0.20470265
210	0x3d8027ea	0.06257613
211	0x3db7af3d	0.08968971
212	0x3e51f902	0.20505145
213	0xbd73e8a3	-0.05954803
214	0x3e22b1fa	0.15888205
215	0x3d8482de	0.064702734
216	0xbd75d823	-0.060020577
217	0xbc2114ac	-0.009831589
218	0xbeb08cf3	-0.34482536
219	0xbc06178c	-0.008184325
220	0xbec124ee	-0.37723488
221	0xbd2cc809	-0.042182956
222	0xbd364260	-0.044496894
223	0x3c11ef15	0.008907099
224	0xbc148c34	-0.00906663
225	0xbdc37ae8	-0.09544927
226	0xbccae4b7	-0.024767263
227	0x3c315338	0.010823064
228	0x3ed25db5	0.41087118
229	0x3ef8cb29	0.485925
230	0x3f430e1d	0.7619341
231	0xbd40e9e0	-0.04709804
232	0x3ed6b206	0.41932696
233	0x3f52e97e	0.8238753
234	0x3ea6997d	0.32538977
235	0x3ee99d1b	0.45627674
236	0x3f0cd808	0.5501714
237	0x3eba1591	0.3634458
238	0x3ed405e4	0.41410744
239	0x3efe2d19	0.49643782
240	0x3f4381b1	0.7636977
241	0xbe1d7f7d	-0.15380664
242	0xbd71a3f5	-0.058994252
243	0xbe4ce5f5	-0.20009597
244	0xbee45b03	-0.44600686
245	0xbec7dd05	-0.39035812
246	0x3c126c7e	0.008936999
247	0x3b2a03ac	0.002594213
248	0x3f297d1d	0.6620653
249	0x3f36db5a	0.71428454
250	0x3f08b709	0.5340429
251	0xbd6da5e7	-0.058019545
252	0xbc6faa46	-0.014627999
253	0x3d5245c8	0.05133608
254	0xbd7dba03	-0.061944973
255	0x3be23190	0.006902881

l1.bias f4 [8]
0	0x3f52e1fa	0.8237606
1	0x3f9eddaf	1.2411402
2	0x3f380ba6	0.71892774
3	0x3f72d563	0.9485685
4	0x3f36df4c	0.71434474
5	0x3ef14be3	0.4712821
6	0x3f90d0e9	1.1313754
7	0x3f5cd732	0.8626586

l2.weight f4 [8, 8]
0	0xbf14f34d	-0.5818375
1	0xbf61de7a	-0.882301
2	0x3fdeb817	1.739993
3	0x3f3b0b4a	0.730641
4	0x3f2bf47c	0.6716993
5	0x3ecdd0b2	0.40198284
6	0x3f91d41f	1.1392859
7	0x3fd86180	1.6904755
8	0xbf9e014b	-1.2344145
9	0x3feaee59	1.8353988
10	0xbdc4f6ff	-0.09617423
11	0xbf71f454	-0.9451344
12	0x3ec70538	0.3887117
13	0x4006770b	2.1010158
14	0x3f61acae	0.88154113
15	0xbe0c553b	-0.13704388
16	0x3fc5977a	1.5436852
17	0x3e71b99c	0.2360596
18	0x3ef082ca	0.46974784
19	0xbf84f645	-1.0387655
20	0x3fb8384e	1.4392183
21	0x3ee61896	0.44940633
22	0xbe877d90	-0.26462984
23	0xbe080242	-0.13282111
24	0x3e4b5338	0.19855964
25	0x3f434879	0.7628246
26	0xbfae8145	-1.36332
27	0x3f031a25	0.5121177
28	0x3fb2445b	1.392711
29	0x3f859057	1.0434674
30	0xbec7b3b1	-0.3900428
31	0x3f874aea	1.0569737
32	0x3f2c545f	0.6731624
33	0xbc37d257	-0.0112195825
34	0xbf972239	-1.1807319
35	0x3f260956	0.64857996
36	0x3f5ee8bd	0.8707388
37	0xbf4f6373	-0.8101112
38	0x3eef2757	0.467097
39	0x3f396381	0.72417456
40	0x3f9b139c	1.2115359
41	0x3f442159	0.76613384
42	0x3fdd60bf	1.729515
43	0xbf818aa3	-1.0120434
44	0x3f2ef8a3	0.6834814
45	0xbeb19ad0	-0.34688425
46	0x3f83762f	1.0270442
47	0xbf7d7f0e	-0.99021995
48	0x3fa5290f	1.2903155
49	0x3fd05cea	1.6278355
50	0x3f5fb640	0.87387466
51	0x3fcc9293	1.5982231
52	0xbf4d049c	-0.8008516
53	0xbfbe082c	-1.4846244
54	0x3f5ed41e	0.87042415
55	0xbeb0e459	-0.34549215
56	0xbd867388	-0.065650046
57	0xbd03f56b	-0.03221647
58	0xbe466987	-0.19376193
59	0x3dbaf7d6	0.09129302
60	0x3def116a	0.11673243
61	0xbe1604cf	-0.14650272
62	0xbc73bfb4	-0.014877249
63	0xbe51109d	-0.20416494

l2.bias f4 [8]
0	0xbf13f213	-0.5779125
1	0x3dc6ca4f	0.09706556
2	0xbe976c63	-0.2957488
3	0x3f78e57a	0.97225153
4	0xbe59c3e9	-0.2126614
5	0x3e93c102	0.2885819
6	0x3f7194d2	0.94367707
7	0xbd82c4d7	-0.063852005

l3.weight f4 [31, 8]
0	0xbf5e1bed	-0.8676136
1	0xc04666d9	-3.1000273
2	0x3ef43b5c	0.47701538
3	0xc0370bf3	-2.8601043
4	0xc06d6e82	-3.7098699
5	0x3f77d624	0.9681113
6	0x3f73f353	0.9529316
7	0xbeb15125	-0.3463222
8	0xbeb32028	-0.3498547
9	0xbec0fbde	-0.3769216
10	0xbe50b62d	-0.20381995
11	0x3e77acb7	0.24186979
12	0x3d77a54b	0.06046037
13	0xbd8f6d69	-0.0700329
14	0x3e193c40	0.1496439
15	0xbdfedcdd	-0.1244447
16	0xbe6a70ca	-0.22894588
17	0x3e412012	0.1885989
18	0xbfd3a897	-1.6535825
19	0x3e9b5a7d	0.30342475
20	0xbeb25195	-0.34827867
21	0xbeb02571	-0.34403566
22	0x3e96bde1	0.2944174
23	0x3e18117f	0.14850424
24	0xbf406170	-0.7514868
25	0x3f7dc6c3	0.9913141
26	0xbf9a638c	-1.2061629
27	0xbfca71a3	-1.5815929
28	0xbeb2cb0a	-0.34920532
29	0x3ed9b73b	0.42522606
30	0xbdafd1c9	-0.08584935
31	0x3d1726b9	0.036902163
32	0xbf38f971	-0.7225562
33	0xbfad3e04	-1.3534551
34	0xbf7c680c	-0.9859626
35	0xbf5b4352	-0.856496
36	0xbf18b765	-0.5965484
37	0xbecf74c3	-0.4051877
38	0xbf104f07	-0.56370586
39	0x3da6218e	0.08111869
40	0xbf237320	-0.6384754
41	0xbd857878	-0.06517118
42	0x3eaea915	0.34113374
43	0xbf9dc29d	-1.2325016
44	0xbe9625ef	-0.29325816
45	0x3f3020a6	0.6879982
46	0xbe354f8c	-0.17706126
47	0xbeafd007	-0.343384
48	0xbf4334d5	-0.7625249
49	0xc065bd2a	-3.5896707
50	0xc0770a17	-3.8599908
51	0xbfa728ac	-1.3059287
52	0x3e2aeed2	0.16692665
53	0x3f028265	0.50980216
54	0x3f9c6a73	1.2219986
55	0x3e18521a	0.1487507
56	0x3f253cbc	0.645458
57	0xbf0980dd	-0.53712255
58	0xbfd5c7c2	-1.6701586
59	0x3e166943	0.14688592
60	0x3e50c5f0	0.20388007
61	0xc03e1b52	-2.9704175
62	0xbeec3222	-0.46131998
63	0xbe23e8a1	-0.1600671
64	0x3f13a454	0.5767262
65	0x3e53d8d2	0.20688179
66	0xbe2cef76	-0.16888222
67	0xbeac817d	-0.33692542
68	0xc02d4c73	-2.707791
69	0xbe064f70	-0.1311624
70	0xbf9e7fc5	-1.2382742
71	0x3d98b586	0.07456498
72	0x3dbc19a4	0.09184578
73	0xbf8c8940	-1.0979385
74	0x3d83f61d	0.06443427
75	0xbf09e361	-0.5386258
76	0xbe6ee7ad	-0.23330565
77	0x3e3ef917	0.18649708
78	0x3eba477e	0.3638267
79	0x3e603a81	0.21897317
80	0xbebee7ca	-0.37286216
81	0xbe21e132	-0.15808561
82	0xc073833c	-3.804885
83	0xc026b378	-2.604704
84	0xc031442c	-2.769786
85	0x3f3f7d4c	0.7480056
86	0x3f7d4e7b	0.98947877
87	0x3e3df273	0.18549518
88	0x3ad46949	0.0016205694
89	0x3e7a88ff	0.24466322
90	0xc054dabf	-3.3258512
91	0x3ec40d2f	0.38291308
92	0x3e8db462	0.27676684
93	0xc05bbf5f	-3.4335554
94	0xbe1e02e4	-0.1543079
95	0xbd1d0ff5	-0.038345296
96	0x3e2d1e04	0.16905981
97	0xbf2e56a6	-0.68100965
98	0x3e33402e	0.17504951
99	0x3f2d5024	0.6770041
100	0x3e46ed20	0.19426394
101	0xbfa10bab	-1.2581686
102	0xbfc75cc9	-1.5575191
103	0xbe128990	-0.14310288
104	0x3f0a768b	0.5408713
105	0xc04c016b	-3.1875865
106	0xc00095b6	-2.0091376
107	0xbdbe8d97	-0.0930435
108	0x3ecf88e4	0.40534127
109	0xc05fb8b1	-3.4956477
110	0x3e94cca1	0.2906237
111	0xbe4cb476	-0.19990715
112	0xc0929d13	-4.581674
113	0x3f04609f	0.5170993
114	0x3d7884fd	0.060673703
115	0x3e47640d	0.1947176
116	0xbfcb03d1	-1.586054
117	0x3e21fb81	0.15818597
118	0x3f3d0127	0.73829883
119	0xba9ef7b4	-0.0012128265
120	0x3eedd816	0.46453923
121	0x3cb65e70	0.022261828
122	0x3e8271ea	0.25477535
123	0xc0442140	-3.0645294
124	0xc0417b66	-3.0231566
125	0x3f39f233	0.7263519
126	0xbf00535a	-0.50127184
127	0x3dfbd822	0.122970834
128	0xbe93bfe3	-0.28857335
129	0x3c596cd0	0.013270572
130	0x3eb2b0d1	0.34900525
131	0x3df2abe2	0.1184919
132	0xbf5b1f0b	-0.8559424
133	0x3eab503d	0.33459654
134	0xc02a1b82	-2.657929
135	0x3ea263ba	0.3171671
136	0xc00f7316	-2.2413993
137	0x3cd18ac7	0.02557887
138	0x3f3f3275	0.74686366
139	0x3e77ba4a	0.24192157
140	0xbe5c5fa9	-0.21520866
141	0x3d7b8937	0.061410155
142	0xbfecea85	-1.850907
143	0xbce8aa8d	-0.028401637
144	0x3e330c7c	0.17485231
145	0xc035ccf4	-2.8406343
146	0x3f04ce2b	0.5187709
147	0x3eba78de	0.3642034
148	0x3ee0a62f	0.43876788
149	0xbf1e4ace	-0.6183289
150	0xbef6cb10	-0.482018
151	0xbeb1da66	-0.34736937
152	0xc00b2027	-2.1738374
153	0xc0435c11	-3.0524943
154	0x3ea8145d	0.32828036
155	0xbf2ab8af	-0.66688055
156	0x3e7a3c27	0.24437009
157	0x3e5472a3	0.20746855
158	0x3f3fd651	0.74936396
159	0xbe86a2b8	-0.2629602
160	0xbfd8bba6	-1.6932266
161	0xbf3496ea	-0.70542777
162	0x3f978d76	1.1840045
163	0xbe3f7835	-0.18698199
164	0xc08ae8ac	-4.3409023
165	0x3f57442c	0.840884
166	0xbe49dcd7	-0.1971315
167	0xbd65a3b5	-0.056064326
168	0xc01ab097	-2.4170282
169	0x3f3c5d5c	0.73579955
170	0x3e49fa9c	0.19724506
171	0x3f218bf0	0.6310415
172	0xc03d8250	-2.9610786
173	0x3e253bb7	0.1613606
174	0xc025d9fd	-2.59143
175	0xbe8728d4	-0.26398337
176	0x3cb1dfec	0.02171322
177	0x3ed16a02	0.4090119
178	0xbf480710	-0.78135777
179	0x3e32471b	0.17409937
180	0x3b89d2c2	0.0042060325
181	0xbfb5bc89	-1.4198161
182	0xbf748010	-0.9550791
183	0xbd421224	-0.04738058
184	0xc02608b1	-2.5942805
185	0xc021813d	-2.523513
186	0xc01792db	-2.3683383
187	0x3fb4f5e9	1.4137546
188	0x3ed01960	0.4064436
189	0xc009d362	-2.1535268
190	0x3f802cce	1.0013673
191	0xbe807695	-0.2509047
192	0x3f973cbe	1.1815412
193	0xc006fa7c	-2.1090384
194	0xc01bf840	-2.437027
195	0xc00de868	-2.21731
196	0xc01d8d91	-2.4617655
197	0xbe0eed03	-0.139576
198	0x3f0076c7	0.5018124
199	0x3dab2fa0	0.08358693
200	0xbff61d02	-1.9227602
201	0xc0445dff	-3.068237
202	0x3f565509	0.83723503
203	0x3f670df0	0.9025564
204	0x3e2c7d38	0.16844642
205	0x3e296074	0.165407
206	0xbf15faa6	-0.58585584
207	0x3e8ebc1c	0.2787789
208	0xc0473bfa	-3.1130357
209	0x3f5c9c91	0.861764
210	0xbfe44a56	-1.7835186
211	0x3fb9a1db	1.4502519
212	0xc040b867	-3.011255
213	0xbfa59593	-1.2936271
214	0xbe80e646	-0.25175685
215	0x3e5adbf4	0.21372968
216	0x3f8e146c	1.1099982
217	0x3e5e4459	0.2170576
218	0xc060bfbc	-3.5117025
219	0x3e37203a	0.17883387
220	0xc017ffd9	-2.3749907
221	0xbfcb21ab	-1.586965
222	0xc000ba98	-2.0113888
223	0xbe1b39ca	-0.15158764
224	0x3e389f79	0.18029584
225	0xbf8ba691	-1.0910207
226	0xbfab0b1a	-1.3362763
227	0x3eadbd9d	0.33933726
228	0xbd012e1f	-0.031538125
229	0xbf491589	-0.78548485
230	0x3f0bd41f	0.54620546
231	0x3e3ac5fb	0.18239586
232	0xbe056f16	-0.13030657
233	0x3f096c68	0.5368104
234	0xbef45724	-0.47722733
235	0x3f857c07	1.0428475
236	0xc05eb72c	-3.47993
237	0xc00cc437	-2.199476
238	0xc01414cb	-2.313769
239	0xbe716d5d	-0.23576875
240	0x3ebdf630	0.3710189
241	0xbd522b25	-0.051310677
242	0xc0367750	-2.8510323
243	0xbfe6e874	-1.8039689
244	0x3f0266ed	0.509383
245	0xbdffe676	-0.12495129
246	0x3e444186	0.1916562
247	0x3e1c89cc	0.1528694

l3.bias f4 [31]
0	0x3e44dddc	0.19225258
1	0x3e948273	0.29005775
2	0x3ed50d99	0.41611937
3	0xbf6b03e8	-0.91802835
4	0xbf019ca9	-0.5062967
5	0xc04238a3	-3.0347068
6	0x3f1e64e4	0.61872697
7	0xbe8ae098	-0.27124476
8	0xbf07fa0a	-0.53115904
9	0xbc39811f	-0.011322289
10	0x3e6fca4e	0.23417017
11	0xbe3002c0	-0.17188549
12	0x3eb8aa73	0.36067542
13	0xbebb1bf7	-0.36544773
14	0xbe384427	-0.17994748
15	0x3da880d2	0.082276955
16	0xbf5b25e5	-0.856047
17	0xbe7ed023	-0.24884085
18	0xbf6d5e41	-0.92721945
19	0xbead1217	-0.33802864
20	0x3e27caf9	0.16386022
21	0xbea5ace4	-0.32358468
22	0xbfb60cfb	-1.4222711
23	0x3f559a69	0.83438736
24	0x3e92059c	0.28519905
25	0xbf0831ae	-0.53200805
26	0x3f6e37b6	0.9305376
27	0x3eb217d3	0.347838
28	0x3ebcedad	0.36900082
29	0x3f1909b2	0.5978042
30	0xbf9299f0	-1.1453228
