streamlit tensorflow chatbot/data1.pth (torch, 10548 bytes, 6 tensors)

l1.weight f4 [8, 143]
00000000: 39d0 123f 0e5e 103f 162e 353e 2bdd 903f
00000010: 2d04 aabd c494 4dbd d2e6 a13d 80c8 8c3c
00000020: e49a ef3c b02a f33c 2b28 91bd 8e33 973d
00000030: 6525 0cbd 0d0c a7bd dc5f 55bd a27a 88bd
00000040: a8a8 44bc 88c6 7c3d 3928 9ebd 6c5e c83c
00000050: 54c6 603d 0020 9e3d 0098 e63b 5073 503d
00000060: b8cc 713d 382e 3ebc 6e1d 893d 25df 93bd
00000070: 209c 8a3d dc70 703d 407a 683d 0d6b a0bd
00000080: ebb2 55bd 7bc9 b83f 05c4 9b3e 82e7 113f
00000090: 0765 c3be 53d3 f5be d393 243e 649f 3cbf
000000a0: b6ae 3b3e 4275 013f 78b7 1d3d 2f4c 273f
000000b0: 27ef a43f c658 a43e b467 833f 6d0f 493f
000000c0: bcb4 8abe a20b 19be e2ed 803e 741d d83e
000000d0: 5de2 87be 6726 3d3f c063 213f b1f8 dcbf
000000e0: 8997 79bf f4d8 2d3f 54e4 d63e 9dcd 90be
000000f0: 9146 2d3f 84cf 843f d5dc 0a3e 77d1 0abf
00000100: 4f29 5d3f 4706 363f 8501 5f3f c29d dd3e
00000110: 4fcd ae3d 640c 2c3e dc98 013f db49 0bbf
00000120: ab80 8bbd 535d 933e f2f6 f83e 9c7a 6e3f
00000130: 7780 6f3f dac8 703d 68ee bd3f 18d6 ac3f
00000140: 0317 af3b 9c8f 1cbf 5951 8cbd 0bac 493f
00000150: a8c7 0fbf 5d1d 0bbf a486 dd3d 514a 9ebe
00000160: 1cf1 923f a294 f4bc aa85 a53f 9ef5 f13e
00000170: 23e5 0abf 3f7e a4be 1992 14bf 0078 133d
00000180: da62 363e fed6 2b3f 7fee 003e 35e5 553f
00000190: d449 81be 2faa 433f 2f3e 033f bdc8 343f
000001a0: 5e91 eb3f 5c56 0bbf 9e85 26be 00fe 653f
000001b0: 92c5 b03f 9279 a8bd 124e cbbc f9fd 0abf
000001c0: 1cc3 ed3c 4d70 0bbf 79dc 2b3f 49d8 66bf
000001d0: 70e7 f2be 5553 c83d dee6 863f a3ce 0c3e
000001e0: a5b6 b93f df5b 713f 574a 85be bbde 80bf
000001f0: a5e3 c13e e4b9 353f 076f aa3f f2bc e5be
00000200: 26a6 8ebe 7cf2 64bd 4d6f 0bbf 05c1 97bf
00000210: ede5 45bf 44d5 473d 84d8 833f 090f c13e
00000220: 3b5a 693f 8108 d73e 6cbf c23f 7fcb ef3d
00000230: c951 743e d46c 693f eb7c 103f 694e a23e
00000240: 9992 8cbe c645 b23e 022d cf3d 1912 93bd
00000250: 3829 d6bc 7886 a6bd 5638 113d 33ce 52bd
00000260: 17f7 99bd 6075 d33c b0df dabc 2200 003d
00000270: 3f45 08bd 2412 893c b844 363d 9475 d83c
00000280: ec3f e23c b607 b6bc 56ec 993d 7045 a53b
00000290: 2844 723d 3073 a63c 0c6a fa3c 12e5 1a3d
000002a0: ac63 3c3d e406 e03c a40f 89bd 4e00 0d3d
000002b0: 5a13 043d 80d4 4c3c a02d 70bc 00a7 f7b9
000002c0: 1c9f 36be f818 083f d014 973e 4b65 973d
000002d0: 3c7b 7f3f 7387 8bbf 0e28 7c3f be09 833f
000002e0: 8a2e 753e 60ec 913e fb32 2dbe a2c9 54be
000002f0: d4dc e83d 788a 3b3e d51d d53e af7c 06bf
00000300: 1887 c1be 551d 6e3f ebb6 c83f 01a6 6fbf
00000310: a9a6 c23e 2187 e3be 5ac8 b93f 5a41 ac3f
00000320: b46b 4b3e b9ee dc3d b08a 06bf e807 21bf
00000330: 67f8 5dbd 8a5a 9ebf ed73 6bbf 38f5 463f
00000340: 70c7 d3be 9f41 85bd 14e7 4b3e c3e8 a63e
00000350: e0c7 af3e b8f7 64be 95b0 c83f 9017 6bbe
00000360: e0eb 5abf 9846 4d3e 4a54 d4bd a959 8a3f
00000370: 022e 223f f7f3 903f d921 433f 83d3 00bf
00000380: 72eb a13f 82b5 6abe b05c 803f 36db 6cbf
00000390: ddf0 67bf ccb5 813f b6c9 2fbf 3fbb 973f
000003a0: a004 ac3c 1225 cb3e 3963 f73d 646b 8fbf
000003b0: 41f3 933e 6473 0fbf 7b67 b73e 213b e33e
000003c0: 5688 48bf 655a 48bf 5868 743f 2f05 76bf
000003d0: 973d b93e e9a7 f5be 8944 ffbe 4586 61bf
000003e0: 658b 77bf 6db4 b5be 0a2c b5bd bb47 fb3c
000003f0: 3901 913f 1060 2cbc 6e0a 9a3f 19b3 0abd
0.5734897 0.56393516 0.17693362 1.1317495 -0.08301578 -0.050190702 0.079053536 0.01718545
0.029248662 0.02968344 -0.070877396 0.0738288 -0.03421535 -0.081565954 -0.05209337 -0.06664015
-0.012003101 0.06171277 -0.077225156 0.024459086 0.05487664 0.07720947 0.007037163 0.05089122
0.059033126 -0.011607699 0.066950664 -0.07220296 0.0676806 0.05870138 0.05675721 -0.07832918
-0.052172583 1.4436487 0.3042299 0.5699388 -0.38163015 -0.4801279 0.16072015 -0.7368071
0.18328366 0.50569546 0.038505048 0.6535062 1.2885484 0.3209898 1.0266023 0.7853916
-0.27091014 -0.14945844 0.2518149 0.4220997 -0.2653989 0.7388672 0.6304283 -1.7263395
-0.9749685 0.6790917 0.41971076 -0.2828187 0.676858 1.0375829 0.13560803 -0.5422587
0.86391157 0.7110333 0.87111694 0.43284422 0.08535253 0.16801602 0.5062387 -0.5440957
-0.06811651 0.28782138 0.48625904 0.9315584 0.93555397 0.058785297 1.4838381 1.3502836
0.0053433194 -0.6115663 -0.06851453 0.7877814 -0.56164026 -0.5434168 0.10816696 -0.30916074
1.1479831 -0.02985603 1.2931416 0.47257704 -0.54255885 -0.32127568 -0.5803543 0.036003113
0.17811146 0.6712493 0.12590979 0.8355287 -0.2525164 0.76431555 0.5126676 0.706188
1.8403738 -0.5442865 -0.16261908 0.898407 1.3810294 -0.08226313 -0.0248175 -0.5429378
0.0290237 -0.5446823 0.6713329 -0.90173775 -0.47442198 0.09781519 1.0539205 0.137507
1.4508864 0.9428081 -0.2603328 -1.0067972 0.37868991 0.7098677 1.3315133 -0.44870716
-0.27861136 -0.055895314 -0.54466707 -1.185578 -0.77303964 0.04878737 1.030045 0.37706783
0.91153306 0.41998675 1.5214667 0.11708736 0.23859324 0.91181684 0.5644061 0.31700447
-0.27455595 0.34818858 0.101160064 -0.07181186 -0.026142702 -0.08131117 0.035454117 -0.05146618
-0.07517832 0.025812805 -0.02671799 0.031250127 -0.033269163 0.016732283 0.04449913 0.026423253
0.027618371 -0.022220474 0.07515781 0.005043678 0.05914703 0.020318598 0.030568145 0.037816115
0.045993492 0.027347036 -0.06692436 0.03442412 0.032245018 0.012501836 -0.014659315 -0.00047235936
-0.17834133 0.531631 0.29508066 0.07392367 0.99797416 -1.0900711 0.9849862 1.0237348
0.23943534 0.28500652 -0.16913979 -0.20780042 0.113702446 0.1831454 0.41624323 -0.52534
-0.3779838 0.9301351 1.5680822 -0.93612677 0.38017777 -0.44439033 1.4514267 1.3457444
0.19865304 0.1078772 -0.5255537 -0.6290269 -0.054191973 -1.237138 -0.91973764 0.77717924
-0.41363096 -0.06506657 0.19912368 0.32599458 0.3433218 -0.22360122 1.5678889 -0.22958207
-0.85516167 0.2004646 -0.10367639 1.0808612 0.6335145 1.1324452 0.7622352 -0.5032274
1.2649977 -0.22920802 1.0028286 -0.9252199 -0.90601903 1.0133605 -0.6866716 1.1854018
0.0209983 0.3967672 0.12079472 -1.1204648 0.28896526 -0.5603545 0.35821137 0.4438105
-0.7833303 -0.7826293 0.95471716 -0.9610166 0.36179802 -0.47979668 -0.49856976 -0.88095504
-0.96697074 -0.35489216 -0.088462904 0.030673852 1.1328498 -0.01052095 1.2034433 -0.033862207

l1.bias f4 [8]
00000000: b21b 083f 53bc 8d3f b29a 993f ae30 0f3f
00000010: e183 3a3f 4f5e 503f 71e2 3a3f 3ff9 393f
0.5316726 1.1073097 1.2000334 0.55933654 0.7285748 0.81393903 0.7300177 0.72645944

l2.weight f4 [8, 8]
00000000: c0cf 61be 0eea 6d3f 6cd9 2d3f 079c d8bf
00000010: b096 ea3e 530c 133f 6e46 66bf 1565 cc3f
00000020: 1a70 0140 e52b bd3e 91fa 74bf ae9b 103d
00000030: f93a 903e 1a62 fe3f 5e14 a23f 8346 763f
00000040: 712d 0e3e efa7 acbf e92d 0340 cd7d c7be
00000050: 5a1a 1640 29e4 97bb 1da8 833f 02c0 0d40
00000060: 28c5 debf ca88 0e3f 1d85 963e 5c48 c0bd
00000070: b490 8dbf bfc8 0c40 8f68 1140 6467 c53f
00000080: 92d9 483d 42a8 0940 f27b b13f 91cf 75bf
00000090: 00b0 51bf 6168 5d3e eaea d4bf 243e 1abe
000000a0: 401f 1140 faa9 443f d7b5 0a3f 3de4 53bf
000000b0: 3aae e63c a2aa 963e 2f0e 173f 19ec 8bbf
000000c0: 92a8 25bf 636c f33f bd52 c73f 19fe 2040
000000d0: e4f6 973f d3b0 98bf c0e5 2d3f 7bce 73bf
000000e0: dfe7 ea3d 0d37 453f 6036 133f f780 083f
000000f0: 2db4 d4bf 574b 8c3f 5615 9b3f cba5 973e
-0.22051907 0.92935264 0.67909884 -1.6922616 0.4581809 0.5744068 -0.8995122 1.5968348
2.0224671 0.3694755 -0.95694834 0.035304718 0.28169993 1.9873688 1.2662466 0.9620134
0.13884522 -1.3488749 2.0496771 -0.38963166 2.3453584 -0.004635353 1.0285679 2.2148442
-1.7403917 0.55677474 0.29398432 -0.093888015 -1.1059785 2.1997526 2.2720068 1.5422177
0.049035616 2.1508946 1.386595 -0.96019846 -0.8190918 0.21621849 -1.663419 -0.15062767
2.2675323 0.76821864 0.54183716 -0.8277014 0.02815925 0.29427058 0.5900602 -1.0931426
-0.6471034 1.9017452 1.5572125 2.515509 1.187222 -1.1928962 0.67928696 -0.9523694
0.11470007 0.77037126 0.57504845 0.53321785 -1.6617485 1.0960492 1.2115886 0.29618677

l2.bias f4 [8]
00000000: 71bb 3e3e 6219 d83d bf22 473d efef b43e
00000010: e02e 803f 6c11 373e 017f 1f3f 0a87 f8be
0.1862619 0.105517164 0.04861712 0.35339305 1.0014305 0.1787774 0.6230317 -0.48540527

l3.weight f4 [31, 8]
00000000: b345 f7be e099 ba3e 87f6 853d c780 0e3f
00000010: 866d 48c0 2333 02bf c871 d5bf d39c 83be
00000020: 6a97 2e3e 6441 58bf efbd e3bd af5e ca3e
00000030: a8f3 953e 35b6 85bf 3342 f2be eac8 8d3e
00000040: 2fdc 32bf c3ce bebe de31 5f3d f22a ea3e
00000050: 65af dfbe c717 dbbf 0bca 133e d9eb e2bd
00000060: 3be8 6ec0 f9a8 083f 5c64 853e fdd2 93be
00000070: b0b1 e4bf d641 813e 1208 14bf 886c 24bf
00000080: 59d0 04bf 33a8 8fbf 95b9 5abf 14f3 64bf
00000090: 2f73 ddbe 6398 8cbf cb36 90bf 9c6a 86bf
000000a0: 34e7 643d b75e 243d ce5f 2fbc 151f 11bf
000000b0: 857a aebb ec1d 9ebe 3617 55c0 646c be3e
000000c0: c28d 113f bdf7 d93d 73e2 83bf be97 d9bf
000000d0: b404 223f 2a59 d33e c83e a8bf 0c7e c1bf
000000e0: bea2 90c0 3e0d 843d cd1a 9bbf 35f7 aebf
000000f0: 0712 923e 6f9a 00bf c94f e83e 1716 173e
00000100: b72e 2d3f 12ca a13d a5cb 0dc0 21c4 3c3f
00000110: 848a ac3e 1642 85bf e2f2 ffbf fafb fb3e
00000120: 97e1 eb3e ba86 67bf 2fd8 733c 9302 e1bc
00000130: 15fb 293f 11f8 c5bf e935 43be 394a 41bf
00000140: 836d 753d 6c51 93bf 26ac 823f 6c0f de3e
00000150: 84da 2ac0 036a 7ec0 60cd c3be db92 75bf
00000160: 0ab3 45c0 bd47 25bf a1fc 3b3f 3a74 1cc0
00000170: 1ddd 36c0 05a8 093f 1572 2d3e 6beb 2cc0
00000180: e9ae d53e b890 2bc0 0999 40c0 8140 12bf
00000190: b71b 7d3f ec50 72bf 707e 413f 4653 64bf
000001a0: 797d 05c0 d000 6ebe 6b9b 0dc0 fd7c ee3d
000001b0: 7b5e 49be 14bd 8bc0 882d 6e3f c719 c63d
000001c0: 08b4 843f d7e8 aa3e 0e4a 3f3f 914d 9f3e
000001d0: f1df 08c0 90dc afbf aa29 15c0 be57 3ac0
000001e0: dd23 523e ca82 17c0 91c7 7bbf c658 a3bf
000001f0: 66b5 363f beb5 393f 461d 97be 2ead bf3e
00000200: 2b81 8ebf 0d87 6ebe fa0c 4dc0 1ebe 43c0
00000210: fd7c 0d3f d739 ff3e 3427 91be 729e d83e
00000220: e1f2 19c0 1042 173f 6172 b7bf 17fa fb3e
00000230: 15a8 83bf d118 dfbc 84b3 51c0 98fc 383f
00000240: 78b9 37c0 4027 d13d 32f2 383f 3d81 0cc0
00000250: 3e5d 13bd af66 36c0 97c2 623f 52ea 23c0
00000260: 10e2 1ebe 54a1 5ac0 fd72 693f abe1 6abf
00000270: e288 8ebf 9465 26c0 cc1e 0b3f da07 50bf
00000280: 3c9a 8bc0 2be2 cc3e bb64 32bf 1e98 463f
00000290: 560e bdbf 6d33 b2bf d862 20bf ea9e eb3e
000002a0: c41c 24c0 4c1f e6be c24d 123f 95ca 3b3f
000002b0: bff7 1dc0 ab2e 6dc0 ed70 5cbf a8f2 6d3f
000002c0: d30c 29c0 3d0d 54be f4bd 39be a016 44c0
000002d0: d583 2cc0 6d50 aebd bb7c 443e 7f7e 9d3f
000002e0: 4935 2a3f a898 3cbf f95c f43e 9584 e13e
000002f0: 5d4a c73e ccaf 43c0 99c5 47c0 bbcc dabb
00000300: 001b 15bf d870 72c0 8379 813e 4a66 ddbf
00000310: 4f9e 063f 0448 d23e 8f7b aa3e 1839 57c0
00000320: d82a 8a3e fd85 37bf 4aa6 583f 9cec 9dbf
00000330: 8300 64bf 0653 b6be 6b8c aebe 1b2a 54c0
00000340: 1e6b 3dc0 ea01 2d3f b87e f3bf 4aef cdbf
00000350: d8ad e53e 1349 3d3f 539e ffbf cbab 21bf
00000360: d0a2 2bc0 3e47 edbc f3f4 a2be 99e2 ecbf
00000370: c8f3 353f 0b22 0f3f b11d 24be e345 6ec0
00000380: 607f 37bf 1f1c a5bf fc7c 09bf 11ad f43e
00000390: 2b2f 273e 3c74 93bf 2904 bd3e c1c0 f13e
000003a0: 3304 99be 16d4 9d3e 0dd6 f83e 516e 94bf
000003b0: 7b8b 88bf 607f 313f 6c0c f9bf adda 30c0
000003c0: 521d 97bd 290b ff3e 4e12 70c0 5ea7 b73c
000003d0: d84f 503e 43a4 bdbe ac6b 20bf 9fb3 28be
-0.48295364 0.36445522 0.06541162 0.5566525 -3.1316848 -0.5085928 -1.6675348 -0.25705585
0.17049947 -0.8447478 -0.11120211 0.39525363 0.29287457 -1.044623 -0.4731613 0.27692348
-0.69867224 -0.37267122 0.054490916 0.4573589 -0.43688503 -1.7116631 0.14432542 -0.110801406
-3.7329242 0.5338283 0.2605313 -0.2887191 -1.7866726 0.2524554 -0.57824814 -0.64228106
-0.51880413 -1.1223205 -0.85439426 -0.8943341 -0.4325194 -1.0984005 -1.1266721 -1.0501285
0.055884555 0.04012939 -0.010703994 -0.5668805 -0.005324664 -0.30882204 -3.3295417 0.3719207
0.5685693 0.106429555 -1.0303482 -1.6999433 0.63288426 0.41278964 -1.3144159 -1.5116591
-4.519866 0.06447838 -1.2117554 -1.3669192 0.2852938 -0.50235647 0.4537337 0.1475452
0.67649406 0.0789987 -2.2155545 0.7373677 0.3369943 -1.0410793 -1.9995997 0.4921568
0.4607055 -0.9043995 0.014883085 -0.027467048 0.66398746 -1.5466329 -0.19063534 -0.7550388
0.05991889 -1.1509223 1.0208786 0.4337114 -2.6695871 -3.9752204 -0.38242626 -0.9592721
-3.0890527 -0.6456259 0.73432356 -2.444594 -2.8572457 0.53772 0.1693805 -2.7018688
0.41735008 -2.680708 -3.0093405 -0.57129675 0.98870414 -0.94654727 0.75583553 -0.89189565
-2.0857832 -0.23242497 -2.212611 0.116449334 -0.19664948 -4.366831 0.93038225 0.096728854
1.0367441 0.33380768 0.74722373 0.31113866 -2.1386683 -1.3739185 -2.330668 -2.9116054
0.20521493 -2.3673577 -0.9835139 -1.2761467 0.7137054 0.7254294 -0.2951452 0.37436813
-1.1133169 -0.23293705 -3.203917 -3.0584788 0.5526884 0.49848816 -0.28350222 0.42308384
-2.4054492 0.5908518 -1.4331781 0.4921424 -1.028567 -0.027233513 -3.2765818 0.7226043
-2.870695 0.102125645 0.7224456 -2.195388 -0.035977595 -2.8500173 0.8857817 -2.5611768
-0.15515924 -3.4160967 0.91191083 -0.9175059 -1.1135523 -2.5999498 0.5434387 -0.8126198
-4.3625774 0.40016302 -0.6968495 0.7757586 -1.477 -1.3921944 -0.62650824 0.4601968
-2.5642557 -0.44945753 0.571499 0.7335599 -2.4682462 -3.7059734 -0.8610981 0.9294839
-2.6414077 -0.20708175 -0.18138868 -3.063881 -2.6955464 -0.08511434 0.19188206 1.2304229
0.66487557 -0.73670435 0.47727183 0.44046465 0.38923922 -3.0576048 -3.1214354 -0.006677238
-0.58244324 -3.7881374 0.2528802 -1.7296841 0.5258531 0.4107057 0.33297393 -3.3628597
0.26985812 -0.71688825 0.84628737 -1.2337832 -0.8906328 -0.35610217 -0.34091505 -3.31507
-2.959663 0.67581046 -1.9023046 -1.608865 0.44859195 0.7393963 -1.9970192 -0.6315276
-2.6818123 -0.028964635 -0.31827506 -1.8506652 0.71075106 0.5591132 -0.16026951 -3.7230155
-0.71678734 -1.2899207 -0.53706336 0.4778829 0.16326587 -1.1519847 0.36917236 0.47217372
-0.29886016 0.3082587 0.48600808 -1.1596166 -1.0667566 0.69334984 -1.9456916 -2.763347
-0.07378639 0.49813202 -3.7511172 0.022418674 0.20342958 -0.37039384 -0.62664294 -0.1647477

l3.bias f4 [31]
00000000: 994b 4abe 175d 153e 3f98 e3be ade9 e03e
00000010: 649c b4be ef25 80be 6e0f 5c3e d4b3 75bd
00000020: fb6c 5bbd ab91 a53e ab57 c53c 0d52 bbbd
00000030: 8749 243f 1eb3 f63e cc1c 023f 2688 5cbe
00000040: 4b5d b33d 9b26 b93c 03da 1e3f 18c3 a5be
00000050: 1a1a a73e bd65 cfbe 85ff 03bf c68b 1ebe
00000060: 7a94 373e 3bb1 12bf d238 353e 5808 1b3f
00000070: 9910 6abd 99d7 533e 24a2 ba3e
-0.197554 0.14586292 -0.44452092 0.4392828 -0.35275567 -0.2502894 0.21490261 -0.05998595
-0.05357073 0.32337698 0.024089655 -0.09146509 0.64174694 0.4818353 0.5082519 -0.21536312
0.087580286 0.022601416 0.6205141 -0.32375407 0.326371 -0.40507308 -0.51561767 -0.15483007
0.17927733 -0.5730168 0.17697456 0.60559607 -0.057144735 0.20687713 0.36451828
