tensorflow chatbot/data.pth (torch, 16426 bytes, 6 tensors)

l1.weight f4 [8, 276]
0.35986337 0.4013379 0.39397657 0.023500234 -0.030261328 -0.026914816 0.16965798 -0.07064844
0.03388694 -0.3954556 -0.012361183 1.0818267 0.006586984 0.012741156 -0.0011173934 -0.05606884
0.5479405 0.023277491 0.36270916 -0.01017328 -0.036875382 -0.060081817 -0.30054072 -0.010395952
-0.036236882 0.26261115 0.0023307204 -1.2610368 0.643815 0.3800304 0.042668685 -0.052820057
0.024847385 0.036919713 -0.8588805 0.5145325 -0.036191635 -0.89657867 -1.1522743 0.038881466
-0.7293286 -0.71789604 0.32298604 -0.04585533 0.015049732 1.4023592 1.1857711 0.30574757
1.1038318 0.04685314 -0.07975339 1.0526538 -0.40254605 1.0888218 -0.03973709 1.1757047
-0.032595374 -0.27492496 1.0858008 -0.014619522 -0.07106867 1.1390721 1.2606674 0.48099762
1.1745445 -0.0009826347 0.73375624 0.28978515 0.82516295 -0.04470614 0.3049315 0.012458784
0.6670865 -0.029693635 0.005920306 0.3544017 0.28329226 0.03850667 0.26491052 -0.08093462
0.8120872 0.24902828 0.028117191 0.04311233 0.25060302 0.34158725 0.5804599 0.83463097
0.34586418 0.40335345 0.7760907 0.7778868 0.61379117 0.33979654 0.33415395 0.36651367
0.72824496 0.5853799 0.74584883 0.5940616 0.33928308 0.3574916 0.42152464 0.045967773
0.21470064 0.041302137 -0.05180341 0.1995272 0.012101738 0.62596273 0.028473862 -0.07607656
1.0743245 -0.94420874 -0.94775283 -0.94729006 -0.94846386 -0.4740443 -0.47775066 0.017916106
0.4850508 -0.048549023 0.18199104 0.4287601 -0.0024822233 0.16319786 0.41208938 -0.058495447
-0.07759523 0.1980719 1.5050046 1.121366 0.32712266 1.2316167 0.833674 0.26315156
0.009257605 1.1463399 0.84072006 0.26440942 0.024902578 1.3043534 0.042595744 0.003339015
-0.0040789954 0.20888929 0.32016817 0.3325791 1.4882808 1.4371408 -0.69663537 -0.34384057
0.3192861 0.43895152 0.07811871 0.30121136 -0.56663924 0.13563725 0.34245396 -1.0804765
0.11282576 0.33753178 -0.4579248 -0.43797928 -0.021968802 -0.18499494 -0.088681266 -0.2197344
-0.42379564 -0.17810073 -0.09117801 -0.28656203 -0.088434026 -0.054920137 0.23257396 1.1026497
-0.06695824 0.25317094 0.33107844 -0.25141773 -0.054615747 0.18499687 1.1460449 -0.08487358
0.24698925 0.16353329 0.41321623 0.04411283 -0.11361276 -0.07934052 -0.122208886 -0.08566987
0.157791 1.3131015 -0.86618304 -0.8780702 1.0889132 0.49540302 1.0809829 0.58742577
1.0764476 0.08682538 -0.3054072 -0.06457145 0.12979075 0.33548003 -0.12193237 0.5018104
0.08664563 -0.37811172 -0.046006683 -0.26184535 -0.3871492 0.027803339 -0.31066775 -0.2607992
-0.23924097 -0.050372884 -0.22137435 -0.055829696 -0.32188278 0.016209528 -0.20397359 -0.024370352
0.041652 -0.22380912 -0.03175202 0.045410402 0.3120686 0.20427711 0.18565468 -0.006404385
0.285014 0.20496462 0.3601488 0.19337565 0.075276494 0.35917956 0.27706733 0.18420254
0.26739463 0.015104466 0.022123111 -0.043574523 -0.46878958 -0.4909098 -0.031720065 0.19041976
0.7640169 0.671012 1.5182128 -0.041122645 0.016613314 0.25177252 -0.25533253 -0.006435182
00000000: 0340 b83e 297c cd3e 4cb7 c93e 9083 c03c
00000010: 9be6 f7bc 767c dcbc d2ba 2d3e 21b0 90bd
00000020: 08cd 0a3d 2879 cabe 8f86 4abc 4c79 8a3f
00000030: a0d7 d73b 48c0 503c 8075 92ba 71a8 65bd
00000040: d445 0c3f 70b0 be3c 04b5 b93e d4ad 26bc
00000050: a40a 17bd 5a18 76bd 79e0 99be c853 2abc
00000060: 206d 14bd f874 863e 00bf 183b a769 a1bf
00000070: 0fd1 243f 5893 c23e 5cc5 2e3d d859 58bd
00000080: be8c cb3c 2039 173d 98df 5bbf 67b8 033f
00000090: ae3d 14bd 2e86 65bf b97d 93bf 2c42 1f3d
000000a0: 47b5 3abf 09c8 37bf 6d5e a53e ccd2 3bbd
000000b0: 2793 763c 8280 b33f 59c7 973f f28a 9c3e
000000c0: 5c4a 8d3f 14e9 3f3d bf55 a3bd 5cbd 863f
000000d0: 841a cebe 835e 8b3f 5cc3 22bd 7e7d 963f
000000e0: ba82 05bd f7c2 8cbe 85fb 8a3f b886 6fbc
000000f0: 738c 91bd 1dcd 913f 8d5d a13f 5245 f63e
00000100: 7957 963f c0cb 80ba 73d7 3b3f b85e 943e
00000110: e13d 533f c91d 37bd fb1f 9c3e ed1f 4c3c
00000120: 2ec6 2a3f 1140 f3bc 20ff c13b 2474 b53e
00000130: af0b 913e 2cb9 1d3d 5aa2 873e 0dc1 a5bd
00000140: f2e4 4f3f 4501 7f3e 0656 e63c 8e96 303d
00000150: 0a4f 803e 86e4 ae3e 0599 143f 60aa 553f
00000160: 1c15 b13e 5884 ce3e e1ad 463f 9723 473f
00000170: 6b21 1d3f d0f9 ad3e 3a16 ab3e aea7 bb3e
00000180: 436e 3a3f 75db 153f f3ef 3e3f 6c14 183f
00000190: 83b6 ad3e 2409 b73e 14d2 d73e b448 3c3d
000001a0: 7cda 5b3e 6e2c 293d d02f 54bd dc50 4c3e
000001b0: 5e46 463c 183f 203f 0442 e93c 07ce 9bbd
000001c0: 7783 893f aab7 71bf ee9f 72bf 9a81 72bf
000001d0: 87ce 72bf efb5 f2be bc9b f4be ccc4 923c
000001e0: 9458 f83e 57db 46bd dc5b 3a3e 7286 db3e
000001f0: ccac 22bb 571d 273e 61fd d23e ec98 6fbd
00000200: 3fea 9ebd 5cd3 4a3e fea3 c03f ec88 8f3f
00000210: 9f7c a73e 9ea5 9d3f a96b 553f cdbb 863e
00000220: 36ad 173c 44bb 923f 6e39 573f ac60 873e
00000230: 7e00 cc3c 0df5 a63f e078 2e3d 60d3 5a3b
00000240: 18a9 85bb 13e7 553e 15ed a33e cf47 aa3e
00000250: fc7f be3f 3bf4 b73f b256 32bf df0b b0be
00000260: 7879 a33e 41be e03e b4fc 9f3d 6038 9a3e
00000270: 450f 11bf 7ee4 0a3e 2056 af3e 0e4d 8abf
00000280: 3111 e73d f7d0 ac3e 1f75 eabe d23e e0be
00000290: ebf7 b3bc 506f 3dbe 869e b5bd 0e02 61be
000002a0: befb d8be 0a60 36be 89bb babd 42b8 92be
000002b0: e61c b5bd f0f3 60bd de27 6e3e a023 8d3f
000002c0: 6721 89bd 9f9f 813e 1d83 a93e d3b9 80be
000002d0: c3b4 5fbd d26f 3d3e 99b1 923f 33d2 adbd
000002e0: c0ea 7c3e 4575 273e 1491 d33e a8af 343d
000002f0: cfad e8bd 487d a2bd a748 fabd af73 afbd
00000300: f793 213e b613 a83f 2cbe 5dbf 35c9 60bf
00000310: 8261 8b3f 77a5 fd3e a65d 8a3f 8961 163f
00000320: 09c9 893f 81d1 b13d 555e 9cbe 093e 84bd
00000330: dee7 043e 0ac4 ab3e aeb7 f9bd a576 003f
00000340: 4473 b13d dc97 c1be 8171 3cbd 9810 86be
00000350: 6c38 c6be d4c3 e33c d80f 9fbe 7987 85be
00000360: 96fb 74be cc53 4ebd f5af 62be aead 64bd
00000370: d2cd a4be d8c9 843c 74de 50be 55a4 c7bc
00000380: 4a9b 2a3d 382e 65be 680e 02bd 4200 3a3d
00000390: 75c7 9f3e 052e 513e 431c 3e3e e0db d1bb
000003a0: 5bed 913e 3fe2 513e 6c65 b83e 4404 463e
000003b0: 902a 9a3d 62e6 b73e c5db 8d3e 979f 3c3e
000003c0: f3e7 883e b978 773c 873b b53c 337b 32bd
000003d0: 3005 f0be 8858 fbbe e6ec 01bd 66fd 423e
000003e0: 9d96 433f 71c7 2b3f cc54 c23f 3870 28bd
000003f0: a518 883c 54e8 803e f2ba 82be 38de d2bb

l1.bias f4 [8]
0.9413425 0.6860016 1.3031597 0.88010114 0.5189143 1.0100464 0.74 1.2877153
00000000: d2fb 703f cd9d 2f3f f0cd a63f 4f4e 613f
00000010: 91d7 043f 3349 813f a470 3d3f dbd3 a43f

l2.weight f4 [8, 8]
-1.0130608 -0.118977584 -0.44719025 1.4582853 0.2915708 1.0842526 2.2540348 0.41127712
-0.5538776 1.2364246 0.053775575 -0.23659094 2.8294547 0.2147552 0.9675356 -0.057961516
0.07439926 -0.28880912 0.4646157 -1.1824839 -0.07144743 1.3845456 0.99741215 -0.030039812
-0.65587664 -0.45846632 0.69920707 1.6770616 -0.34821182 0.966081 -0.47565764 2.4765532
-0.3672001 1.543074 1.1163328 0.6208072 1.3353212 -1.0870112 -0.589119 0.34298244
1.0827633 1.107961 -0.6641147 -1.4281937 0.34104577 0.53175753 0.744599 0.8948626
1.5955635 1.8936576 0.02726749 1.5397499 -0.16653849 -0.44744644 1.3393643 -0.70856434
2.1167564 -0.56965905 0.9708252 -0.06022811 -1.6849029 1.5978851 0.5813531 1.1387522
00000000: faab 81bf 85aa f3bd 1ff6 e4be 18a9 ba3f
00000010: c548 953e cac8 8a3f 1b42 1040 ea92 d23e
00000020: ecca 0dbf 2943 9e3f c743 5c3d e544 72be
00000030: c915 3540 cae8 5b3e 6ab0 773f 0e69 6dbd
00000040: a45e 983d cade 93be 1ce2 ed3e a25b 97bf
00000050: 0853 92bd ca38 b13f 6756 7f3f 0d16 f6bc
00000060: 88e7 27bf 19bc eabe 3cff 323f f4a9 d63f
00000070: d248 b2be 1651 773f 6689 f3be d97f 1e40
00000080: a701 bcbe 7383 c53f fee3 8e3f 38ed 1e3f
00000090: ceeb aa3f 2f23 8bbf 81d0 16bf 659b af3e
000000a0: fd97 8a3f abd1 8d3f 6c03 2abf 0dcf b6bf
000000b0: 8d9d ae3e 4321 083f 0a9e 3e3f b715 653f
000000c0: 6d3b cc3f 5f63 f23f 1260 df3c 8616 c53f
000000d0: 1189 2abe b317 e5be 4a70 ab3f 7964 35bf
000000e0: f078 0740 2dd5 11bf 0088 783f c0b1 76bd
000000f0: e6aa d7bf 8087 cc3f 8fd3 143f a2c2 913f

l2.bias f4 [8]
-0.45805362 0.071091704 0.55949897 1.413195 0.15713084 -0.34266505 -0.41436797 -0.24213544
00000000: 0186 eabe 8798 913d 533b 0f3f 93e3 b43f
00000010: e8e6 203e cb71 afbe 0a28 d4be 5af2 77be

l3.weight f4 [31, 8]
-1.9075359 -3.565861 0.679007 0.6336365 -2.1936915 -0.37910554 -3.6559706 1.0789169
-0.1295629 -0.37877214 -0.063338704 0.22413126 0.07380955 -0.38284728 -0.20526665 -0.4313728
0.008436781 -0.7203283 0.8844259 -0.12285871 0.06863345 0.11753958 -1.0362346 -0.05566948
0.26564416 0.5111462 0.5091217 -0.29552454 0.2353456 -0.5088354 -1.0993371 -1.6611371
-0.78748536 -1.3065133 -0.5618552 -0.89524513 -0.529563 -0.80679435 -0.9188088 -0.96745604
-1.1307656 -0.90367126 -0.41056526 -1.4420317 0.2361513 0.33527333 0.13800396 -0.15466815
-2.7770615 0.39906648 -0.012755823 -0.60124874 -0.33160186 1.0724742 -0.26468918 -0.8887432
-2.6775718 0.36252493 -0.54575694 -4.6262197 0.14592993 0.63897836 -0.021277852 -0.20508708
0.009427771 -1.171777 0.2737163 -1.6801572 -1.3911278 0.4748988 0.6838875 0.07777003
0.33329123 -0.17366204 0.6074505 -0.54767066 -0.08103608 -0.8470956 -0.13836785 -0.20296179
0.89038914 0.028371667 0.09997514 0.6167953 -0.7383812 -2.1661782 -3.8439415 -0.43014517
-0.5897765 0.31330818 -0.26705047 -3.4351015 0.33798814 -0.35103804 0.008937705 -2.1538002
-0.28682414 0.23522457 0.19866379 -2.4576356 0.0653375 0.11818961 -0.14754772 0.027117109
-1.0887626 -2.0187058 0.4570204 -3.6565602 -0.08236725 0.32615522 0.6514199 0.36399373
0.7648905 -1.7858351 -0.37009117 0.32469022 -4.1544943 -0.75525695 0.20326099 -0.073002145
0.15218422 -1.3827353 -1.395416 -0.34860578 -0.10872109 -2.687737 0.8072405 -0.24097583
0.6292574 -0.19760858 -0.759497 -0.32941797 0.30074975 -1.6583123 0.20706476 -2.7173476
0.08447323 -2.0062754 0.049360923 1.5033075 0.21950682 -3.1859958 -0.13972288 -3.6722655
-2.2205942 -1.6155531 -0.08728935 -1.2776097 0.26714715 -2.061191 0.68508506 0.102813445
-1.2082798 -2.4454267 -1.5467299 0.40023425 0.43087843 -3.1138334 -0.5044923 0.08073585
-0.52922356 -3.7708 -1.1470952 1.180561 0.29235145 -2.4121144 -3.2883599 0.13852404
-1.7317983 -2.8208942 0.19333744 -2.0412533 -1.996579 0.35673654 0.6292893 0.9729207
0.6092254 0.21651107 -0.6068732 -2.050416 0.019134376 -0.85469615 0.20339501 -1.6581025
0.6281642 0.44501603 0.20204985 -2.7534487 -0.7506245 0.16052338 -0.037976123 -3.09594
0.7369569 -3.3655517 -0.13061526 0.9660701 -2.155233 -2.4653475 -2.3945332 0.32470855
0.42762476 -1.5568402 -1.0740185 0.38321108 -0.15784201 -4.090697 -0.9684788 0.3628594
0.76854885 -4.0476837 -1.4977181 0.5264305 -0.30630037 -2.5831814 -0.28929883 -0.6073713
-0.7122501 0.36850047 -0.55913186 0.91987723 0.3249507 -1.8302829 -2.7622702 -3.0726867
-0.7168604 -1.9302806 0.59018785 0.053075064 -0.2736869 -0.3473876 -0.3559049 0.47138813
0.19382839 -1.6867101 -0.31751212 0.5946384 -3.3634017 0.6869945 -3.4004126 0.33063424
-0.81014675 0.2629971 -0.56398237 -1.9038126 0.49894264 -1.4873081 0.06918995 -1.0242091
00000000: 232a f4bf 1137 64c0 67d3 2d3f 0036 223f
00000010: 7165 0cc0 1f1a c2be 6cfb 69c0 f319 8a3f
00000020: 23ac 04be 6cee c1be b9b7 81bd aa82 653e
00000030: 7629 973d 8f04 c4be 6c31 52be e5dc dcbe
00000040: 6d3a 0a3c 6f67 38bf bc69 623f 599d fbbd
00000050: b28f 8c3d 97b8 f03d 56a3 84bf ae05 64bd
00000060: 8302 883e 7ada 023f cd55 023f fe4e 97be
00000070: 70fe 703e 0943 02bf 14b7 8cbf 24a0 d4bf
00000080: a498 49bf d43b a7bf bed5 0fbf c92e 65bf
00000090: 7191 07bf 138a 4ebf 0e37 6bbf 33ab 77bf
000000a0: edbc 90bf 0057 67bf 9c35 d2be 7f94 b8bf
000000b0: a5d1 713e f2a8 ab3e e950 0d3e 5461 1ebe
000000c0: 60bb 31c0 7152 cc3e cdfd 50bc 70eb 19bf
000000d0: b8c7 a9be d646 893f 5785 87be ad84 63bf
000000e0: 565d 2bc0 de9c b93e bab6 0bbf fe09 94c0
000000f0: a86e 153e 1694 233f e44e aebc 5902 52be
00000100: f076 1a3c cafc 95bf 8b24 8c3e 640f d7bf
00000110: 7a10 b2bf ef25 f33e 4013 2f3f e545 9f3d
00000120: 26a5 aa3e 76d4 31be e081 1b3f 2534 0cbf
00000130: 3ff6 a5bd 42db 58bf 4db0 0dbe 37d5 4fbe
00000140: 8bf0 633f b36b e83c c4bf cc3d 4ce6 1d3f
00000150: 8d06 3dbf aaa2 0ac0 2303 76c0 fd3b dcbe
00000160: 98fb 16bf ee69 a03e d7ba 88be b4d8 5bc0
00000170: c80c ad3e 42bb b3be 746f 123c ddd7 09c0
00000180: 9dda 92be b6de 703e 856e 4b3e e749 1dc0
00000190: abcf 853d 650d f23d c016 17be b324 de3c
000001a0: 935c 8bbf 7a32 01c0 94fe e93e 1505 6ac0
000001b0: 29b0 a8bd d1fd a63e 74c3 263f 635d ba3e
000001c0: ddcf 433f 3f96 e4bf 977c bdbe cc3d a63e
000001d0: 9ef1 84c0 8558 41bf a623 503e 2682 95bd
000001e0: 2ed6 1b3e 78fd b0bf fe9c b2bf 757c b2be
000001f0: 2aa9 debd e203 2cc0 50a7 4e3f 5ec2 76be
00000200: 0317 213f e759 4abe 656e 42bf 79a9 a8be
00000210: dffb 993e 9443 d4bf c908 543e 06e9 2dc0
00000220: 4d00 ad3d d166 00c0 ae2e 4a3d 616c c03f
00000230: 65c6 603e 5be7 4bc0 8413 0fbe 6606 6bc0
00000240: 371e 0ec0 72ca cebf c2c4 b2bd b788 a3bf
00000250: 83c7 883e 8eea 03c0 bc61 2f3f db8f d23d
00000260: eaa8 9abf df81 1cc0 3ffb c5bf 81eb cc3e
00000270: 199c dc3e 0c49 47c0 6826 01bf d658 a53d
00000280: 327b 07bf ca54 71c0 04d4 92bf 9f1c 973f
00000290: 17af 953e 1560 1ac0 7d74 52c0 3fd9 0d3e
000002a0: 91ab ddbf 8889 34c0 40fa 453e e5a3 02c0
000002b0: e78f ffbf 2ca6 b63e 1b19 213f 5511 793f
000002c0: 32f6 1b3f 14b5 5d3e 0b5c 1bbf 043a 03c0
000002d0: b2bf 9c3c 5ecd 5abf c846 503e b43c d4bf
000002e0: 5ecf 203f 24d9 e33e 28e6 4e3e 8138 30c0
000002f0: ed28 40bf 3e60 243e da8c 1bbd e223 46c0
00000300: 35a9 3c3f 3365 57c0 02c0 05be 5f50 773f
00000310: 56ef 09c0 41c8 1dc0 0840 19c0 3340 a63e
00000320: a2f1 da3e 8a46 c7bf 7079 89bf 3e34 c43e
00000330: 56a1 21be fde6 82c0 3aee 77bf b5c8 b93e
00000340: 9ebf 443f a086 81c0 3ab5 bfbf 26c4 063f
00000350: 67d3 9cbe d852 25c0 fa1e 94be af7c 1bbf
00000360: 0656 36bf 18ac bc3e 4423 0fbf 137d 6b3f
00000370: f05f a63e b646 eabf 09c9 30c0 e6a6 44c0
00000380: 2a84 37bf 6f13 f7bf 8d16 173f 3d65 593d
00000390: b020 8cbe cadc b1be 2b39 b6be c959 f13e
000003a0: f37a 463e 1ee6 d7bf f390 a2be 393a 183f
000003b0: f941 57c0 dfde 2f3f 5ca0 59c0 e448 a93e
000003c0: c765 4fbf 8ea7 863e 2661 10bf 22b0 f3bf
000003d0: 6975 ff3e 1d60 bebf 76b3 8d3d 4919 83bf

l3.bias f4 [31]
1.1101899 -0.13833486 -0.030831657 -0.20980124 -0.38510236 -0.6300482 0.53398424 -0.3775746
-0.3342798 0.19618666 0.21649733 -0.3490792 0.55573386 -0.1558018 -0.17001632 -0.45260745
-0.41241473 1.0527685 0.22840242 -0.40615487 0.09877879 0.49821398 -0.018177422 0.19812843
0.05105441 -1.2610687 -0.4120527 0.09058302 0.38028935 -0.49505243 -0.46441796
00000000: b41a 8e3f a7a7 0dbe ac92 fcbc 23d6 56be
00000010: 232c c5be d74a 21bf 31b3 083f 7551 c1be
00000020: b926 abbe 28e5 483e 7ab1 5d3e 82ba b2be
00000030: 9344 0e3f 828a 1fbe c218 2ebe 2abc e7be
00000040: 0628 d3be 1ec1 863f 53e2 693e 88f3 cfbe
00000050: 894c ca3d e715 ff3e d1e8 94bc 2ee2 4a3e
00000060: 6e1e 513d b36a a1bf 92f8 d2be 9783 b93d
00000070: 49b5 c23e 8377 fdbe 31c8 edbe
